results/linear_probing/model_results_action_layer-1_stepNone_t9_20250821_135440.pth (torch, 39469 bytes, 2 tensors)

linear.weight f4 [9, 1024]
00000000: 83c3 f4bb 813d 78bc d325 59bc b1de 9fbc
00000010: 5d94 33bc f1ec f8bb 46ba 543a c18a 803c
00000020: 7eaf a73c 8165 4bba 26d5 c8bc 5ff7 563c
00000030: 7150 153c bb98 33bc f885 33b9 ce6a 64ba
00000040: a682 6d3c 2d2c a63b 55b2 6cbc ef3a 49bb
00000050: f0e4 20b6 8e79 463b a5a9 37bc cd2a 423c
00000060: cb59 943c 5b5e 0e3c 9c2b 673c 4deb 97bb
00000070: 2983 3f3d 8d0b 2c3b 90ea cfbc c7ae 2fbc
00000080: 1330 da3c d6dd e43c 68c0 2fbb 39a0 393c
00000090: f9ff 273c b01d cfbb d06c 143b b56e 533c
000000a0: d2b7 d03c b622 ff3c 1e3b b93c d596 dcbc
000000b0: eb00 90bc 42ef adbb 4fc5 983c dcfa cb3c
000000c0: 3cc0 07bc f7f0 33bd 3dd2 c9bc 0be4 39bc
000000d0: 2c57 80bc 7c30 da3b 98dc ffbb 2162 023d
000000e0: 5945 983c 340a e23c 7c0a eb3b f205 533c
000000f0: 53ef 3ebc f2b0 f6ba 9d25 76bc ad14 70bc
00000100: ed25 cb3c 4de9 8bba 808a e73a 382b 58bc
00000110: 8396 83bc 986d 15bc efd9 543c 5528 c4bb
00000120: 065d f7bb 1333 c6bc 637c ff3b de3a 81bc
00000130: 0454 d0bb 679b a5bb b68d 893c 9411 06bb
00000140: 3b55 b53a 4c03 e53a b0fb 103b 4d55 093c
00000150: 0c9f 9b3c 13ae ed3b 2d6d b9bc 8f28 993c
00000160: 3121 1dbc a666 f4ba 69ed fd3c c151 ccbb
00000170: d0ba 8ebb 2ca4 2e3c 5e8e 17bc 760b bcbc
00000180: 0e78 ddbb 570b b23b a956 53bc 5814 8f3c
00000190: ddf2 91bc 40c9 2d3d 79b9 97bb 70a6 a43a
000001a0: 0fd0 73bb c15a 9e3c 7c91 2ebc b6c5 dfbc
000001b0: 3b20 8739 e5dd 0dbc f9a5 a13b d31b 3cbb
000001c0: 5a30 c83c fa21 f03a 15d3 493b 015e f73c
000001d0: 4d72 8dbc 6b40 243c 9f28 b2bb 8939 d2bc
000001e0: 1d7b 13bc d7a5 edbc 6cae deba ceb0 0ebb
000001f0: 4016 043c a4e9 ba3a f256 35bc 11d6 a5bc
00000200: c9a8 b83b 290d 4a3c 9adc 7bbc cd0a c13b
00000210: d0c1 693c c093 7bbb 9822 c3ba 31a5 a2bb
00000220: 982f a03c 9b37 8b3c 4bad 553b 0715 8e3c
00000230: 0819 35bc 4a5d a03c aa59 013c 3202 d43c
00000240: 4d68 de3c e648 8fba 45f0 cfbc 34d9 4d3c
00000250: 5c2d 1fbc 528e 833b 4674 8d3c d131 debc
00000260: 91a9 da3c 8caa 80bc 68e9 87bc a470 99bc
00000270: c7e4 953c 85f1 b63c 4795 0e3c 51c1 cbbb
00000280: 5f3f bd3b f3d3 24bd 0e8e 04bd 3a64 193b
00000290: f0f0 853a ca27 abbb 3a6f 22bb 7734 e3bc
000002a0: c3af 4cbc 7464 593c d346 e23c cc5e 8abb
000002b0: 7059 893b 4619 633c 4666 c13b 2b0e 853b
000002c0: 1863 8ebb 9cb8 3dba b8ae 4dbb 60b5 0bbc
000002d0: d4ad aa3c e401 13bd 4ad1 883c 9d02 36bc
000002e0: b319 acbc 2e95 bebc f2de 223c a666 d93c
000002f0: d576 b33c dd3c 0c3b 3581 34b9 1473 adbc
00000300: 8d6e f33b 316e 06bc 1a22 d1bb b56a 1abc
00000310: 9b2c a0bc 6ee4 40bc f60f ab3b de1a 34bd
00000320: 9f6b 863c 47a8 ce3c 9f7c 693c 368a 053d
00000330: 732e dd3b 12a6 aa3b dd1c 37ba 2ba4 bdbb
00000340: a4df 623c accd 763c 4574 92ba b73e 823c
00000350: e5a0 423c 3e02 32bc 85c3 1abc 3646 3bbc
00000360: 5bd9 5abb f779 353a dcdb 96bb 5a09 873c
00000370: 949d bdbc 7c6a 36bc 9f58 773b 67a6 18bd
00000380: bf28 d13c c202 07bc 0322 28ba a3a0 ca3b
00000390: ea3a 5ebc 5a66 e9ba 5bd4 483c d2bb 5a3c
000003a0: 54cb e4ba 042d 193c cb45 e63c d7d5 a9bc
000003b0: 61d6 c4bb f2c6 163c 952a af3c e372 55bc
000003c0: ec22 b2bc c028 ae3b bd19 98bc 7949 d7bc
000003d0: 9baa da3a 7781 263c 46ab 763b 28d2 a3bc
000003e0: e78d 01bc efd0 2dbb 20ea 8bbc 512b 013d
000003f0: 31cc 13bc 0c1d 24bd 1686 4e3c 55c5 88bc
-0.007469596 -0.015151382 -0.013253647 -0.019515367 -0.0109606655 -0.007596605 0.0008114915 0.015691163
0.020469423 -0.0007758961 -0.0245157 0.013120501 0.009113417 -0.010961707 -0.00017120678 -0.0008713425
0.014496481 0.005071184 -0.014446815 -0.0030705293 -2.3975117e-06 0.0030284855 -0.01120988 0.011851025
0.018109223 0.008689488 0.014109518 -0.0046362043 0.046755943 0.0026252002 -0.025380403 -0.0107228225
0.026634252 0.02793781 -0.0026817564 0.011329704 0.0102539 -0.0063206777 0.0022647865 0.012904813
0.025478277 0.031144481 0.022611197 -0.026927391 -0.017578563 -0.005308063 0.018648772 0.024899893
-0.008285578 -0.043930974 -0.024636382 -0.011345874 -0.015666567 0.006658612 -0.0078082792 0.031831864
0.018587755 0.027592756 0.0071728807 0.012879835 -0.011653739 -0.0018821044 -0.015023616 -0.014653367
0.024798358 -0.0010674387 0.0017665178 -0.013193898 -0.01606298 -0.0091203675 0.012991413 -0.0059862533
-0.007548931 -0.024194276 0.0077968105 -0.01577514 -0.0063576717 -0.005053926 0.016791206 -0.0020457255
0.0013834605 0.0017472296 0.0022122674 0.008382154 0.018996738 0.0072534173 -0.022635067 0.018696098
-0.009590433 -0.0018646314 0.030996995 -0.0062353318 -0.004355766 0.010659259 -0.009250252 -0.022954684
-0.0067586964 0.0054334807 -0.012899079 0.017465755 -0.017816002 0.042428255 -0.0046302644 0.0012561809
-0.003720287 0.019330384 -0.010654803 -0.027315956 0.0002577322 -0.008658861 0.0049331156 -0.0028703108
0.024437118 0.0018320673 0.003079598 0.030196192 -0.017266417 0.010025124 -0.0054369713 -0.0256622
-0.00900152 -0.029009743 -0.0016989238 -0.0021772864 0.008061945 0.0014260304 -0.011068093 -0.020243676
0.005635355 0.012332239 -0.01537242 0.00589118 0.0142674 -0.0038387626 -0.0014887629 -0.00496354
0.019553944 0.016994288 0.0032604511 0.017344011 -0.011053331 0.019575734 0.007894913 0.025879953
0.027149344 -0.001093176 -0.025383124 0.012563992 -0.009715404 0.0040147686 0.017267358 -0.027123364
0.026692184 -0.015706323 -0.016590789 -0.018730469 0.018297566 0.022331962 0.008702583 -0.0062181135
0.0057753767 -0.040241193 -0.032362036 0.0023405687 0.00102189 -0.005223249 -0.0024785534 -0.027734978
-0.012493077 0.013268579 0.027621662 -0.0042227264 0.00419157 0.013861006 0.0059020845 0.004060527
-0.004345309 -0.0007237287 -0.0031384658 -0.00852713 0.02083484 -0.035890475 0.01670136 -0.0111090215
-0.021008348 -0.023264494 0.00994085 0.026538204 0.02190725 0.0021398582 -0.00017214271 -0.021173038
0.00742895 -0.008204983 -0.006382239 -0.009424855 -0.01955252 -0.011773212 0.0052204086 -0.043970935
0.01640874 0.025226725 0.014250903 0.03260251 0.006749922 0.0052077854 -0.0006985197 -0.0057873926
0.013847265 0.015063684 -0.0011173567 0.015899045 0.011879181 -0.010864792 -0.00944603 -0.011430314
-0.0033393714 0.0006922776 -0.004603846 0.016483951 -0.023146428 -0.011133786 0.0037742031 -0.03726807
0.025532125 -0.008240404 -0.00064137595 0.0061837 -0.013563851 -0.0017806992 0.012257661 0.013350444
-0.0017455616 0.0093491115 0.028109452 -0.02073185 -0.0060070013 0.009202706 0.02138261 -0.013027879
-0.021745168 0.0053149164 -0.01856696 -0.026280152 0.0016682924 0.010162703 0.0037638708 -0.019997671
-0.007907367 -0.002652224 -0.017079413 0.03153545 -0.009020851 -0.040066764 0.012605211 -0.016695658

linear.bias f4 [9]
00000000: 3d41 dc38 9ad6 72b9 dcd1 90b8 3a02 87b9
00000010: 8531 0b38 398f 89b6 23b8 3537 0822 6e38
00000020: 3e7d 78b8
0.00010502569 -0.00023158864 -6.9055444e-05 -0.00025750865 3.31863e-05 -4.0995915e-06 1.0831313e-05 5.6775316e-05
-5.924445e-05
