results/linear_probing/model_results_action_layer-1_stepNone_t9_20250821_124015.pth (torch, 39469 bytes, 2 tensors)

linear.weight f4 [9, 1024]
000000 c3 b5 8a bc 95 91 10 bd 06 78 4e bc 0b e1 92 3a
       -0.016932374 -0.035295088 -0.012601858 0.0011205984
000010 90 b1 80 bb f4 d7 2e bc 6f aa 13 3c d2 60 9c 3c
       -0.003927417 -0.010671604 0.0090128025 0.019089136
000020 84 0d cf 3c c9 f4 8c bb 03 83 5a bc c7 6e c8 3c
       0.025275 -0.0043016416 -0.0133369 0.024466885
000030 ef c4 58 ba d7 d2 11 bc fb 0d 90 3a 1d 6e 38 bb
       -0.00082690915 -0.008900366 0.0010990495 -0.0028141805
000040 f4 7c c1 3c e3 6b 80 3c 39 ec c7 bc ce 62 81 bb
       0.023619153 0.015676444 -0.024404632 -0.003948546
000050 94 2e e2 3a 78 2a 22 3a 37 1b 58 bc 4a cb 67 3b
       0.0017256313 0.0006186138 -0.013190082 0.0035368972
000060 9a 43 f4 3c 78 2e 44 ba 8b d7 02 39 b8 25 9b bc
       0.029817391 -0.0007483731 0.00012478062 -0.018938884
000070 80 37 1c 3d 60 55 52 bc 1e 4d cb bc bb 8c f7 bb
       0.038138866 -0.012837738 -0.024817046 -0.007554618
000080 9d 1c b9 3c 44 23 ae 3c 97 31 27 3b 1a a1 a0 3b
       0.022596652 0.02125705 0.0025511736 0.0049020173
000090 bf f2 89 3b 0a 48 39 bc 94 eb 41 ba d2 44 92 3b
       0.004209846 -0.011308679 -0.00073974696 0.0044637704
0000a0 61 25 55 3c c8 ab de 3c a4 e4 c5 3c 0a a4 e5 bc
       0.0130094 0.027181521 0.024156876 -0.028032321
0000b0 7b dc e8 bb 6c e0 02 b9 5c a6 86 3c 3f 6c 10 3d
       -0.0071063614 -0.0001248137 0.016436748 0.03525948
0000c0 1e 11 a3 bc 44 ac 2a bd 68 75 13 bd 17 e3 c3 bb
       -0.019905623 -0.04166819 -0.03600064 -0.005977999
0000d0 1f c3 16 bc 1d 06 39 b8 d8 75 00 bc 6f ab ed 3c
       -0.009201794 -4.411313e-05 -0.007840596 0.02901241
0000e0 f4 11 57 3c ea 89 23 3d 5c cd 0a 3c c7 a6 98 3c
       0.013126839 0.039926447 0.008471813 0.018634213
0000f0 68 dd e2 bc fc 15 48 bb 52 a7 d2 ba f9 c3 9a bc
       -0.027693465 -0.0030530682 -0.0016071594 -0.018892275
000100 cc 25 12 3c e7 8f 22 ba 6c f8 9d bb 7a 3d 2f bc
       0.008920144 -0.00062012527 -0.004820874 -0.0106958095
000110 41 fa c5 bc 3f 87 67 bc f9 1d 26 3c aa 2a 67 3b
       -0.024167182 -0.014131366 0.010138982 0.0035273232
000120 e9 ac 68 bc b8 b0 e3 bc 81 43 12 3c 5e 04 26 bc
       -0.014201381 -0.027794227 0.008927227 -0.010132877
000130 24 b0 c8 bb a9 98 56 3c 3f 51 f0 3b d5 2f c7 bb
       -0.006124513 0.01309792 0.007333904 -0.0060787
000140 fe 15 84 bc bd c0 0e 3c 90 a3 33 3b 5e fc 28 bb
       -0.016123768 0.008712945 0.0027410723 -0.0025785188
000150 ff b0 d7 3b d1 a5 96 3b fa f8 a5 bc 32 6e b7 3c
       0.006582379 0.0045974036 -0.020260323 0.022391412
000160 80 51 aa 3b 77 4b 0e bc ad 28 17 3d f6 c1 04 3c
       0.005197704 -0.008684984 0.036904026 0.0081028845
000170 55 96 c1 ba 0f 28 72 3c 0c a4 48 bc 7e 9f ba bc
       -0.0014769534 0.0147800585 -0.012246143 -0.02278113
000180 75 25 87 bc 4d f2 ca bb 32 07 99 bc 0d f4 ac 3b
       -0.016497353 -0.0061934353 -0.018680189 0.0052781166
000190 1c ea 0f bc d2 c9 b9 3c f7 0d bf bc d0 0b 07 3c
       -0.008783843 0.022679243 -0.023322089 0.008242562
0001a0 fc 9f eb 3a 35 b3 9a 3c 64 9a 04 bc 69 05 87 bc
       0.0017976756 0.01888428 -0.00809345 -0.016482072
0001b0 01 de 52 bc 9a 87 1d bc 3c 85 0f bb eb 5f 45 3b
       -0.012870313 -0.009614849 -0.0021899482 0.0030116986
0001c0 8f 72 99 3c 19 26 28 bc f9 c5 b1 bb 37 dd 00 3d
       0.018731384 -0.010262989 -0.0054252115 0.031460967
0001d0 de 6d d6 b9 ff d5 9f 3c a0 60 0e bc 05 ab 02 bd
       -0.00040899118 0.019511221 -0.008690029 -0.03190138
0001e0 73 c5 10 3c e7 06 c2 bc a0 ff 58 bc 32 10 13 bc
       0.008836138 -0.023684932 -0.0132445395 -0.008976029
0001f0 8b 98 8d 3c 47 f0 67 3c b8 c1 c6 ba 13 9f ad bc
       0.017284652 0.014156408 -0.0015163934 -0.021194017
000200 bf 25 81 bc 79 42 f3 3b 6f c3 94 bb 7c f9 30 3c
       -0.015765069 0.0074236956 -0.004539899 0.010801669
000210 1e bc db 3c b2 4d 24 3c 2a 62 7e 3c 19 c0 26 bc
       0.0268231 0.01002829 0.015526334 -0.010177636
000220 9f 25 2b 3c 40 dc 67 b8 7c 77 bd 3b 1e d8 42 3c
       0.010445981 -5.5279816e-05 0.005782066 0.011892347
000230 64 fd 89 3a fa 04 fc 3b f1 9b 3f 3c 4f 7f 3b 3d
       0.0010527787 0.007691023 0.011694894 0.045775708
000240 70 17 c6 3c 47 f6 12 3b ef d1 e4 bc 33 8f 80 3c
       0.024181098 0.0022424625 -0.027932135 0.015693283
000250 c4 ea 80 bc fd ef c5 3b 13 9b bd 3b d0 1b 97 bc
       -0.015736945 0.0060405717 0.0057863086 -0.01844588
000260 1c 46 07 3d c0 fa 0f bc b8 73 55 bb 54 5f eb bb
       0.033025846 -0.008787811 -0.0032570194 -0.007182995
000270 e3 7a 81 3c 6c 95 8c 3c 09 be 62 ba bb 97 65 bc
       0.015805667 0.017161094 -0.0008649533 -0.014013226
000280 6d 8b 00 3c 98 8b 55 bd 17 28 0a bd 2d 03 ae 3c
       0.007845742 -0.05213508 -0.03372964 0.021241749
000290 89 73 c9 3b dc 75 82 bc 65 91 e5 3b de 24 80 bc
       0.006147806 -0.01592534 0.007005858 -0.01564258
0002a0 0a 5f 06 bc bb cb 1c b9 13 1a de 3c b5 09 bc 3b
       -0.00820137 -0.00014953215 0.027112043 0.005738462
0002b0 13 b8 63 3c 89 f3 e7 3b df 46 ec 3b ad d5 8a 3b
       0.013898867 0.007078592 0.007210597 0.004236898
0002c0 de eb 90 bb 33 dc 90 3a 8c a5 22 bc 48 12 70 bc
       -0.004422649 0.0011051953 -0.009927165 -0.014652796
0002d0 3e b5 d8 3c 72 a7 18 bd 27 33 95 3c 43 12 bc bc
       0.02645361 -0.037269063 0.018212868 -0.022957927
0002e0 63 b9 41 bc b0 12 64 bc c7 ec 73 3a b8 b2 96 3c
       -0.011823985 -0.013920471 0.0009304997 0.018395767
0002f0 cb 35 a9 3c c9 54 32 3c 2c ef 95 3b 7a f3 f2 bc
       0.020655533 0.010884472 0.0045756306 -0.029657114
000300 14 1a 77 3b aa a5 8c bc df 8a 8a 3c 32 8c c6 bc
       0.0037704753 -0.017168839 0.016911922 -0.024236772
000310 e3 8a 5c bc 03 1e d5 bb 1c c9 97 3a c0 0f 3d bd
       -0.013460848 -0.006503822 0.0011580321 -0.0461576
000320 d4 a8 a3 3c 82 08 0d 3d 89 79 16 3c 4c 93 06 3d
       0.019977964 0.03443194 0.00918425 0.032855317
000330 0e 96 27 b9 e6 27 09 3c 3d 2f 2e bc 9c 13 20 bc
       -0.00015982261 0.008371329 -0.01063138 -0.0097703
000340 4c 40 f0 39 4b 62 4c 3c fd a9 36 bc 99 1f 73 3c
       0.00045824272 0.012474607 -0.011148927 0.014839076
000350 b2 04 31 3c af 33 33 3c 4d 8f 6e 3a 4d 2b 8c bc
       0.010804342 0.010937615 0.0009100333 -0.017110491
000360 a9 02 da 3a 26 6f c4 bb 46 f6 80 3b 5a e0 60 3b
       0.0016632873 -0.0059946952 0.003935608 0.0034313411
000370 bd c5 8e bc df bb 08 bc 10 f2 91 3b 46 a2 25 bd
       -0.017428273 -0.008345573 0.004453905 -0.04043796
000380 b3 97 3e 3c 34 96 02 bc 3f 1d 9d 3b c7 8b 25 3c
       0.011632848 -0.0079703815 0.004794746 0.010104126
000390 94 72 3a bc 43 25 90 bc 1e b7 b1 3b b3 a6 22 3c
       -0.011379857 -0.017595893 0.0054234406 0.0099274395
0003a0 57 cf 30 3b 9d 2f 02 3c 8e 63 28 3d 5f 00 fe bc
       0.0026979053 0.007945922 0.041110568 -0.031006036
0003b0 eb d1 e3 bc f6 25 ed 3c 4a 6f 92 3c 0f 61 b3 bc
       -0.027810058 0.028948765 0.017875332 -0.021896867
0003c0 30 a6 b8 bc 3a eb 03 3b 71 9d 60 bc 8c 41 c9 bc
       -0.022540182 0.002012922 -0.013709412 -0.024567388
0003d0 38 11 a9 3b 33 25 62 3a 28 30 6d 3c b5 22 e2 bc
       0.0051595233 0.0008626759 0.014476813 -0.02760444
0003e0 4c 9c 3a bc 4c 0f 68 b9 5c 42 0c bc 2f 61 be 3c
       -0.011389803 -0.00022130943 -0.008560743 0.0232397
0003f0 64 84 70 bc 79 4a 04 bd fd 9b 91 3c 49 be bf bc
       -0.014680002 -0.032297585 0.017774576 -0.023406165

linear.bias f4 [9]
000000 57 ea 66 39 32 c1 71 b9 a1 86 1b 39 22 8a e5 b9
       0.00022021808 -0.00023055522 0.00014832105 -0.000437812
000010 7a 59 a1 39 81 84 37 39 b5 e8 7d 38 0e 76 13 38
       0.00030774978 0.00017501602 6.0536626e-05 3.5157478e-05
000020 47 56 85 37
       1.5895012e-05
