results/linear_probing/model_results_action_layer-1_stepNone_t9_20250821_132959.pth (torch, 39469 bytes, 2 tensors)

linear.weight f4 [9, 1024]
0	0xbc92be34	-0.017912962
1	0xbd04f9cd	-0.03246479
2	0xbc4b87d8	-0.012422524
3	0xba8e19cc	-0.0010841428
4	0xbb26403e	-0.0025367881
5	0xbc247d85	-0.010039692
6	0x3c2e26ad	0.010629338
7	0x3ca71795	0.020396987
8	0x3cd518ee	0.026012864
9	0xbb9b9a63	-0.004748629
10	0xbc303800	-0.010755539
11	0x3cbdf05d	0.023185903
12	0xbadd032a	-0.0016861905
13	0xbc1a9392	-0.009434598
14	0x3b898e88	0.0041978993
15	0xbc2d78db	-0.010587896
16	0x3cc7785d	0.024349386
17	0x3c48e8eb	0.012262563
18	0xbcbe33e1	-0.023218097
19	0xbbc824b6	-0.006107892
20	0x3b39808b	0.0028305377
21	0x39da1db2	0.00041602325
22	0xbc5e6c3f	-0.013575613
23	0x3b5b1c3c	0.0033433577
24	0x3ce4eccd	0.027944947
25	0xbaf963c6	-0.0019026927
26	0x3ae7d9a2	0.0017688761
27	0xbcb2ab95	-0.021810332
28	0x3d159352	0.03651745
29	0xbc533513	-0.012891072
30	0xbcdd59df	-0.027020393
31	0xbbde15e4	-0.006777512
32	0x3cb57fd0	0.022155672
33	0x3c9e0773	0.019290661
34	0x3b626af4	0.0034548612
35	0x3baa30b2	0.005193793
36	0x3b9d3c4a	0.004798447
37	0xbc20fbb7	-0.0098256385
38	0xbb728f1e	-0.0037011574
39	0x3b7f473f	0.0038952378
40	0x3c29d96e	0.010366781
41	0x3cf73a71	0.030179234
42	0x3cd47dd7	0.025938911
43	0xbcd04c0d	-0.025426889
44	0xbbd14b49	-0.0063871485
45	0x3b737f7f	0.003715485
46	0x3c9ce186	0.019150507
47	0x3d0b2320	0.033969045
48	0xbcb31127	-0.021858765
49	0xbd23a9b1	-0.039956752
50	0xbd0e3819	-0.034721468
51	0xbb82d311	-0.003992446
52	0xbbf4c769	-0.0074700606
53	0x3b10a026	0.0022068112
54	0xbbaf2898	-0.0053454153
55	0x3ce5d21c	0.02805429
56	0x3c1bc90e	0.009508384
57	0x3d2751dc	0.04084955
58	0x3c1b8dcc	0.009494256
59	0x3c8c8121	0.017151417
60	0xbcd6d70a	-0.026225585
61	0xbabcbe3c	-0.0014399956
62	0xbb2f0b88	-0.0026709754
63	0xbc8d9408	-0.0172825
64	0x3c08bbf6	0.008345595
65	0xbb3c8cec	-0.002877052
66	0xbb8017d3	-0.00390909
67	0xbc28af30	-0.010295674
68	0xbcc289ab	-0.023747286
69	0xbc64b9d2	-0.013960319
70	0x3c167f80	0.009185672
71	0x3addcbd4	0.0016921707
72	0xbc441275	-0.011967291
73	0xbcdd9c6a	-0.027052123
74	0x3c1a5081	0.009418608
75	0xbc28cf89	-0.0103033865
76	0xbc174ec1	-0.009235085
77	0x3c3f82e0	0.011688918
78	0x3bbe84d1	0.005814173
79	0xbbc4940c	-0.005999094
80	0xbc63d6bb	-0.013906176
81	0x3c0c8953	0.0085776625
82	0x39fcb54c	0.00048200262
83	0xba6d130b	-0.000904367
84	0x3bcce1c4	0.0062524993
85	0x3b8d132c	0.004305264
86	0xbca9bf57	-0.02072112
87	0x3cb496f4	0.022044636
88	0x3b986541	0.0046507423
89	0xbbf36e93	-0.007428953
90	0x3d12f536	0.035878383
91	0x3c045759	0.008077466
92	0xbb040f06	-0.0020150556
93	0x3c4b190f	0.012396111
94	0xbc53ef7b	-0.012935515
95	0xbca6286f	-0.020282952
96	0xbc878b5e	-0.016545948
97	0xbb9b4483	-0.004738392
98	0xbc98dafa	-0.018659104
99	0x3b73bc1d	0.0037190982
100	0xbc174487	-0.009232647
101	0x3cc7a6e8	0.02437158
102	0xbc89d9ca	-0.016827483
103	0x3c0612ab	0.008183162
104	0x3a291ebd	0.0006451419
105	0x3c95ee4f	0.018302111
106	0xbbba9793	-0.0056943386
107	0xbc5fd5f9	-0.013661855
108	0xbc589cb4	-0.013220955
109	0xbc285d44	-0.0102761425
110	0xbb415bf2	-0.0029504267
111	0x3b8fb830	0.0043859705
112	0x3c8925f3	0.016741728
113	0xbc29f881	-0.010374189
114	0xbbb523a9	-0.0055279327
115	0x3cf75e98	0.030196473
116	0xbaaf41b0	-0.0013371017
117	0x3c8dde6a	0.01731797
118	0xbc021b9c	-0.007941153
119	0xbd081fa9	-0.03323332
120	0x3c04b94b	0.008100818
121	0xbcc1a75e	-0.023639377
122	0xbc6f9819	-0.014623665
123	0xbc292663	-0.0103240935
124	0x3c873647	0.016505374
125	0x3bed406a	0.007240345
126	0xbc087d0a	-0.008330593
127	0xbcba2f07	-0.022727503
128	0xbc6533a1	-0.01398936
129	0x3c0b41a6	0.0084995385
130	0xbbd80c7e	-0.006593286
131	0x3c3a78d1	0.011381344
132	0x3cd779fe	0.026303288
133	0x3c2e1be3	0.010626766
134	0x3c814e79	0.015784489
135	0xbc2d3d52	-0.010573702
136	0x3c35c02e	0.0110931825
137	0x3883451e	6.259441e-05
138	0x3c03e587	0.008050329
139	0x3c4c95d0	0.01248689
140	0x3a46a95f	0.0007578339
141	0x3bf28485	0.0074010515
142	0x3c052c07	0.008128173
143	0x3d29f91d	0.04149734
144	0x3cbe58db	0.023235729
145	0x3b7e867e	0.0038837488
146	0xbcdfb32b	-0.027307114
147	0x3c3d1c19	0.011542344
148	0xbc66b8c4	-0.0140821375
149	0x3bf18cca	0.0073715197
150	0x3bbd8f4a	0.0057849037
151	0xbc8b99b3	-0.017041063
152	0x3ce5e26f	0.028062074
153	0xbbca45da	-0.0061728777
154	0xba3b39ac	-0.00071420777
155	0xbc033a47	-0.0080095
156	0x3c8b0f65	0.016975114
157	0x3c5bf973	0.013426173
158	0xba4141fd	-0.0007372199
159	0xbc4f5e8e	-0.012656821
160	0x3bd50fe4	0.0065021385
161	0xbd5345cb	-0.05158023
162	0xbcf41ffc	-0.029800408
163	0x3cb494a3	0.022043532
164	0x3bc40bd5	0.005982856
165	0xbc56453b	-0.013078029
166	0x3bee8407	0.0072789225
167	0xbc6405d7	-0.013917408
168	0xbc116403	-0.008873942
169	0x3ac3136b	0.0014883106
170	0x3ce40b54	0.027837433
171	0x3b53ff69	0.0032348281
172	0x3c5ff4c2	0.013669195
173	0x3b9f2dfc	0.0048577767
174	0x3beef2d8	0.007292133
175	0x3b6d1ae2	0.0036179353
176	0xbb486278	-0.003057627
177	0x3afe182f	0.0019385869
178	0xbc06df54	-0.0082319565
179	0xbc313734	-0.010816384
180	0x3cd41523	0.025888985
181	0xbd1c377d	-0.038138855
182	0x3c992f08	0.018699184
183	0xbcc05657	-0.02347867
184	0xbc5ea007	-0.013587958
185	0xbc6dd101	-0.014515162
186	0xbb180e76	-0.0023201979
187	0x3c9292b1	0.017892214
188	0x3ca421e6	0.020035695
189	0x3bfe3638	0.007757928
190	0x3ba9a115	0.005176673
191	0xbce27967	-0.02764578
192	0x3bd8e1b1	0.0066187014
193	0xbc6aa526	-0.014321601
194	0x3c787a08	0.015165813
195	0xbccb13a7	-0.024789644
196	0xbc73dcf7	-0.014884225
197	0xbbdfb508	-0.0068270005
198	0xbaa1d10e	-0.0012345628
199	0xbd2f1fc6	-0.04275491
200	0x3c9141a3	0.017731493
201	0x3d136176	0.035981618
202	0x3c0a75cc	0.0084509365
203	0x3d021142	0.03175474
204	0xb9ea8a2b	-0.000447349
205	0x3bd9e61f	0.006649747
206	0xbc30531a	-0.010762
207	0xbc327360	-0.010891765
208	0x3ae85b73	0.0017727449
209	0x3c52aa7a	0.012858028
210	0xbbc9cacb	-0.006158208
211	0x3c64e832	0.013971375
212	0x3bf51418	0.007479202
213	0x3c192e40	0.009349406
214	0x3b34248b	0.0027487602
215	0xbc97c1be	-0.018525
216	0x3b1b4ae3	0.002369576
217	0xbba652f1	-0.0050758054
218	0x3b868d06	0.004106167
219	0x3af0c5a5	0.001836945
220	0xbc858fbe	-0.016303893
221	0xbc049a2e	-0.0080934
222	0x3bcc0290	0.0062258914
223	0xbd1b7967	-0.037957575
224	0x3c641500	0.013921022
225	0xbc18e47e	-0.0093318205
226	0x3b4d7fc9	0.0031356683
227	0x3ba15cf1	0.0049244096
228	0xbc300b72	-0.010744916
229	0xbc4105cc	-0.011781167
230	0x3bd5e564	0.0065275896
231	0x3c349b93	0.01102342
232	0x3b060a51	0.0020452926
233	0x3c0b2838	0.008493476
234	0x3d26250a	0.040562667
235	0xbce7c636	-0.028292757
236	0xbccc7dba	-0.024962295
237	0x3cef12e8	0.02918382
238	0x3c67569b	0.014119769
239	0xbcbae653	-0.022814905
240	0xbcc70a80	-0.024296999
241	0x3b3485da	0.0027545602
242	0xbc763c47	-0.01502902
243	0xbcc917cc	-0.02454748
244	0x3b94c0db	0.0045395917
245	0xb92eb38c	-0.0001666082
246	0x3c6230cb	0.013805578
247	0xbcd0abad	-0.025472486
248	0xbc1dcac1	-0.00963086
249	0xbaba005f	-0.0014190784
250	0xbbfd6d33	-0.007733965
251	0x3caad63a	0.020854104
252	0xbc9a5d44	-0.0188433
253	0xbcff6bba	-0.031179298
254	0x3c86e69b	0.016467383
255	0xbcb1e7c8	-0.021716967

linear.bias f4 [9]
0	0x387f7854	6.0908802e-05
1	0xb8018fa6	-3.088978e-05
2	0x38aa29a5	8.1139886e-05
3	0xb9d51705	-0.00040643677
4	0x39d0519a	0.0003973365
5	0x3804affa	3.1635143e-05
6	0x372a686c	1.0157102e-05
7	0x37ace1dc	2.0609172e-05
8	0x37be6862	2.2698372e-05
